Epoch1000.pth (torch, 13246 bytes, 20 tensors)

encoder.0.weight f4 [16, 3]
0	0x3fd20267	1.6406983
1	0x3e422fa0	0.1896348
2	0x3e818306	0.25295275
3	0x3e0d27c3	0.13784699
4	0x3f05b5ad	0.5223034
5	0x3f3d7f78	0.74022627
6	0x3d5c4718	0.053778738
7	0xbdc5c8a0	-0.09657407
8	0xbf2da841	-0.6783486
9	0x3f18da92	0.5970851
10	0x3ea4b22c	0.32167184
11	0xbf3bcb20	-0.7335682
12	0xbe95bddc	-0.29246414
13	0x3f91e36b	1.1397527
14	0xbda428ef	-0.0801562
15	0x3f3be7d6	0.7340063
16	0xbe95aa04	-0.29231274
17	0xbdefcc48	-0.117088854
18	0xbf8c1961	-1.0945245
19	0x3ebd4672	0.36967808
20	0x3db60599	0.088877864
21	0xbe449b03	-0.19199757
22	0xbe7dc641	-0.24782659
23	0xbfd1a8c1	-1.6379625
24	0x3ca3a843	0.019977694
25	0xbfe53df6	-1.7909534
26	0x3dd080a0	0.10180783
27	0xbf076e2f	-0.529025
28	0xbf534c43	-0.8253824
29	0xbeff37a4	-0.49847138
30	0xbe302c4a	-0.17204395
31	0x3f0b0ce5	0.5431655
32	0x3f62f341	0.88652426
33	0x3ec761f6	0.38941926
34	0x3cde1190	0.027107984
35	0x3f9178e7	1.1365021
36	0x3f012eba	0.50461924
37	0xbde04d75	-0.10952274
38	0xbf6ac276	-0.91702974
39	0x3f3840cd	0.7197388
40	0x3f2950d2	0.66138947
41	0xbe02d5e5	-0.12776907
42	0xbee2257c	-0.44169223
43	0xbf2463b0	-0.6421461
44	0xbec42b6b	-0.38314375
45	0xbf48c978	-0.78432417
46	0xbeed15ad	-0.463056
47	0x3e8317e7	0.25604174

encoder.0.bias f4 [16]
0	0x3ef38ab4	0.4756676
1	0xbf1a789e	-0.603403
2	0x3d88aeea	0.06673987
3	0xbe9f223c	-0.31080806
4	0x3f1a507a	0.6027905
5	0xbdfa91b9	-0.12234826
6	0x3d8a418d	0.06750784
7	0xbef117a7	-0.47088358
8	0xbe4a9e11	-0.1978686
9	0x3d439d4f	0.047757443
10	0xbf0c947d	-0.54914075
11	0xbf174500	-0.5908966
12	0xbedc0395	-0.42971483
13	0x3ed411ea	0.41419917
14	0xbe430385	-0.19044311
15	0xbde538d4	-0.1119248

encoder.1.weight f4 [16]
0	0x3f82202b	1.0166067
1	0x3f708518	0.93953085
2	0x3f8902b5	1.0703951
3	0x3f7269c2	0.94692624
4	0x3f8fa8ae	1.1223352
5	0x3f1077ea	0.56432974
6	0x3fcd6351	1.6045934
7	0x3f8619aa	1.0476582
8	0x3fbd7436	1.480109
9	0x3f62c3ca	0.8858
10	0x3f7e3d42	0.9931222
11	0x3f715cb8	0.942821
12	0x3f3cdcb3	0.7377426
13	0x3f96bbad	1.1776024
14	0x3f8047f7	1.0021962
15	0x3fc4c56b	1.5372747

encoder.1.bias f4 [16]
0	0x3f0b5f8f	0.54442686
1	0x3e87ba0b	0.26509127
2	0xbf69210f	-0.9106607
3	0xbe88053c	-0.26566494
4	0x3dc8b6c3	0.09800484
5	0x3e3b5173	0.18292789
6	0xbec74d2d	-0.38926068
7	0xbe72a8d6	-0.23697218
8	0x3e13af67	0.1442238
9	0xbe893e8f	-0.2680554
10	0xbf501cad	-0.81293756
11	0x3ee961f6	0.4558255
12	0x3f5666ac	0.83750415
13	0x3cbc91d2	0.023018751
14	0xbf0c65d7	-0.54842895
15	0xbee9f581	-0.45695117

encoder.1.running_mean f4 [16]
0	0x436bb719	235.71523
1	0x432bc1fc	171.75775
2	0xc2ac9623	-86.293236
3	0x41d3ea4f	26.489408
4	0x42eeaa0e	119.33214
5	0x41cec22d	25.844812
6	0xc2726851	-60.60187
7	0xc371bd65	-241.73982
8	0xc3685515	-232.33235
9	0xc3673a82	-231.22855
10	0x431c0247	156.0089
11	0x432fa7c0	175.65527
12	0xc282a8de	-65.32982
13	0x432118f2	161.09744
14	0xc33690c6	-182.56552
15	0xc2fe48e2	-127.14235

encoder.1.running_var f4 [16]
0	0x460d8cc4	9059.191
1	0x44cd9438	1644.6318
2	0x44691b6e	932.4286
3	0x45128990	2344.5977
4	0x4501358a	2067.3462
5	0x44b00d50	1408.416
6	0x454bfc76	3263.7788
7	0x45c1442b	6184.521
8	0x45a40021	5248.016
9	0x45434337	3124.201
10	0x44d04a72	1666.3264
11	0x4564774b	3655.4558
12	0x44fcc13d	2022.0387
13	0x453528fd	2898.5618
14	0x44f61f95	1968.9869
15	0x452a69cc	2726.6123

encoder.3.weight f4 [32, 16]
0	0xbe017501	-0.1264229
1	0x3e359624	0.17733055
2	0x3e480ec5	0.19536884
3	0x3e1bb061	0.15204002
4	0x3dccddf1	0.100032695
5	0xbf0cf7b6	-0.55065477
6	0xbea18eea	-0.31554347
7	0x3e0da67c	0.1383304
8	0xbf817ec4	-1.0116811
9	0xbf01c028	-0.5068383
10	0xbe932cd7	-0.28745148
11	0xbebae8d8	-0.3650577
12	0x3dc13565	0.09434012
13	0xbc79acb0	-0.015238926
14	0xbe824465	-0.25442806
15	0xbf2de888	-0.6793294
16	0x3d2a76ba	0.041617133
17	0x3e84a236	0.25905007
18	0xbed60a4f	-0.4180474
19	0x3d6050de	0.05476462
20	0xbe0e6259	-0.13904704
21	0xbed041ea	-0.40675288
22	0xbee513ac	-0.4474157
23	0xbf8b5685	-1.0885779
24	0xbfb435b9	-1.4078895
25	0xbd2db833	-0.042411994
26	0xbd19b665	-0.03752746
27	0xbec41241	-0.38295177
28	0xbd08867e	-0.033331387
29	0x3cb1bd8d	0.02169683
30	0xbedf060b	-0.43559298
31	0xbeb94ceb	-0.36191496
32	0x3e088bec	0.13334626
33	0x3f0a3132	0.53981316
34	0xbf11811d	-0.56837636
35	0x3e754592	0.2395232
36	0x3f2329fa	0.63735926
37	0xbe744219	-0.23853339
38	0xbd9c602e	-0.07635532
39	0xbee0cf91	-0.4390836
40	0xbe9b9371	-0.30385926
41	0xbe904a01	-0.2818146
42	0x3fc95327	1.5728501
43	0x3d53f63d	0.051748503
44	0xbd453dee	-0.048154764
45	0x3ec870e0	0.39148617
46	0xbe95ddb0	-0.29270697
47	0x3f0e12b0	0.55497265
48	0x3f8c275b	1.094951
49	0x3d86d1ae	0.06582962
50	0x3e979d65	0.2961227
51	0xbce71283	-0.02820707
52	0xbe9b6eff	-0.3035812
53	0x3d9968a8	0.07490665
54	0xbf4cf176	-0.8005594
55	0x3e16da29	0.14731659
56	0x3e89c1b3	0.26905593
57	0x3e8cb5a2	0.27482325
58	0xbd4be6e2	-0.049780734
59	0xbe9145b0	-0.2837348
60	0x3ecbdebc	0.3981837
61	0x3f23960d	0.63900834
62	0x3eddbe5d	0.43309298
63	0x3ef31c93	0.47482738
64	0xbed21d5d	-0.41038027
65	0xbf1e6f10	-0.6188822
66	0xbe21d1f9	-0.15802754
67	0xbdd76466	-0.10517196
68	0x3e047976	0.12936959
69	0xbe57842c	-0.21046513
70	0xbed57729	-0.41692474
71	0xbce7c2e6	-0.028291177
72	0xbe27c0b6	-0.16382107
73	0xbf2449c4	-0.6417506
74	0xbeeb10d9	-0.4591129
75	0xbe40b2ea	-0.1881825
76	0x3f091973	0.5355446
77	0x3e1e9a4a	0.15488544
78	0xbf9028ab	-1.1262411
79	0xbec74a7b	-0.38924012
80	0x3f1601f5	0.58596736
81	0xbe7ffbfb	-0.24998467
82	0xbb9563e2	-0.004559026
83	0xbdbfab19	-0.09358806
84	0x3de52bca	0.11189993
85	0xbe1a8472	-0.15089586
86	0xbfd91146	-1.6958396
87	0x3e1da88a	0.15396324
88	0xbe49b391	-0.19697405
89	0xbe8c5136	-0.2740571
90	0xbe811c8d	-0.25217095
91	0x3ed863c8	0.42263627
92	0xbeae3202	-0.34022528
93	0x3cc2ec3e	0.02379429
94	0xbe9d5877	-0.30731556
95	0xbb939129	-0.0045033884
96	0x3d905981	0.070483215
97	0xbe5e0249	-0.21680559
98	0xbea18680	-0.31547928
99	0x3e89d5a4	0.26920807
100	0xbfd9363e	-1.6969678
101	0x3d1a038e	0.037601046
102	0x3ecf99ff	0.40547177
103	0x3cf671ef	0.030083625
104	0x3e4d0564	0.20021588
105	0xbe6c9b88	-0.23106205
106	0xbc213f16	-0.009841701
107	0x3e227598	0.15865171
108	0xbf08e418	-0.53473043
109	0x3f0fc0c4	0.5615351
110	0xbcd01164	-0.025398917
111	0x3e2d28c7	0.16910087
112	0x3f83544f	1.0260104
113	0x3dae9d0a	0.085260466
114	0x3e510c76	0.2041491
115	0x3f0af0ad	0.5427349
116	0xbedc8f69	-0.43078163
117	0x3f205c51	0.62640864
118	0xbf14af7a	-0.58080256
119	0xbf213d49	-0.6298414
120	0x3db7ec58	0.08980626
121	0x3e5fb16f	0.2184503
122	0x3eb2a82e	0.34893936
123	0xbeaca222	-0.33717448
124	0x3d087996	0.03331908
125	0x3e34f1e9	0.17670406
126	0x3f11f243	0.5701029
127	0x3f41da77	0.75723976
128	0x3c513c87	0.0127707785
129	0xbf6243f2	-0.88384926
130	0x3ede336a	0.433986
131	0x3e1a6d63	0.1508079
132	0xbf4326d8	-0.76231146
133	0x3f279051	0.65454584
134	0x3f493ce4	0.78608537
135	0x3e888d83	0.26670465
136	0x3e1ca65e	0.15297839
137	0x3f098a14	0.53726315
138	0xbdbd1ff4	-0.0923461
139	0x3e3848cf	0.17996524
140	0x3e811340	0.2521
141	0xbf431c9c	-0.7621553
142	0x3e954d87	0.2916071
143	0x3e584158	0.21118677
144	0x3f2fa1a8	0.6860604
145	0x3dc33e20	0.09533334
146	0x3d87e9b9	0.06636376
147	0x3e02e141	0.1278124
148	0x3ea3a457	0.3196132
149	0x3e863bf7	0.26217625
150	0xbe3fda93	-0.18735723
151	0x3e756366	0.23963699
152	0x3f07a20f	0.52981657
153	0xbf9e640e	-1.2374284
154	0xbca81934	-0.02051983
155	0x3e68a812	0.22720364
156	0x3ddfc930	0.10927045
157	0x3ebd3ef9	0.36962107
158	0xbf473902	-0.7782136
159	0xbf38e2a0	-0.722208
160	0xbe1abc3b	-0.15110867
161	0x3eed343d	0.46328917
162	0xbe358f93	-0.1773055
163	0xbf57def1	-0.84324557
164	0x3e3d9341	0.18513204
165	0xbe07da7b	-0.13266937
166	0x3dc3ad80	0.09554577
167	0x3ec6a97a	0.38801175
168	0x3eba19a8	0.363477
169	0x3d93a92a	0.0721
170	0x3f19a91b	0.6002366
171	0x3f160700	0.5860443
172	0xbf028293	-0.5098049
173	0xbeb4c5b1	-0.35307077
174	0x3eafafb9	0.34313753
175	0x3e1fbd30	0.15599513
176	0x3eca579f	0.39519975
177	0xbdc19dcd	-0.09453926
178	0x3ec174a9	0.37784317
179	0x3eaf1014	0.34191954
180	0x3e6f56a2	0.23372892
181	0xbe48dc92	-0.19615391
182	0x3f938893	1.1526054
183	0xbd812aca	-0.063069895
184	0x3e20d73b	0.15707104
185	0x3eec4e16	0.46153325
186	0x3ed72765	0.42022243
187	0xbe17b9f8	-0.14817035
188	0x3c4adcfa	0.0123817865
189	0x3dbfb885	0.09361366
190	0x3e6dd6aa	0.23226419
191	0x3fad78de	1.3552511
192	0x3ed06697	0.4070327
193	0xbec09e4c	-0.3762077
194	0xbe95dc2d	-0.29269543
195	0x3e23057c	0.15920061
196	0x3e67b868	0.22628939
197	0xbc778067	-0.015106297
198	0x3f28c8db	0.6593148
199	0x3ebff0c0	0.37488365
200	0x3e88241e	0.26590055
201	0xbe39aace	-0.18131563
202	0xbf806302	-1.0030215
203	0xbfc66f9e	-1.5502813
204	0x3f5a78b7	0.85340446
205	0x3dfe35cc	0.12412605
206	0x3d0f2e49	0.03495625
207	0x3e19ca50	0.15018582
208	0x3f34c818	0.7061782
209	0xbcfde321	-0.030992093
210	0xbdcb2ce6	-0.09920673
211	0x3f177374	0.5916054
212	0xbc091344	-0.00836641
213	0x3f01dfc5	0.5073207
214	0xbe3d333e	-0.18476579
215	0xbe600115	-0.21875413
216	0xbf6b6098	-0.91944265
217	0xbf179963	-0.59218425
218	0x3e6497fa	0.223236
219	0xbead8c90	-0.33896303
220	0x3ed373a7	0.41299173
221	0x3d8bd4b1	0.06827677
222	0xbee58eab	-0.4483541
223	0x3ddc6cb4	0.10762921
224	0xbe69acf4	-0.22819883
225	0xbdd2e9f8	-0.10298532
226	0x3fcf99bb	1.621879
227	0x3dead60e	0.11466609
228	0x3ee5a5f2	0.4485317
229	0xbe320fe7	-0.17388879
230	0xbf154271	-0.58304507
231	0x3f47d9d4	0.78066754
232	0x3d4780b1	0.048706714
233	0xbf05873e	-0.5215949
234	0x3f511b8a	0.81682646
235	0x3f85ea31	1.0462095
236	0x3ee42699	0.44560698
237	0x3f040007	0.5156254
238	0xbf32472d	-0.69639856
239	0x3e0381b2	0.12842444
240	0x3de2013b	0.11035391
241	0xbf02efcb	-0.51147145
242	0x3e195ba3	0.14976363
243	0x3efe60b2	0.49683148
244	0xbf638c55	-0.88886005
245	0x3ee7bf28	0.45263028
246	0xbe33df44	-0.17565638
247	0x3de3c7f9	0.11122126
248	0x3f914cd3	1.135157
249	0x3e54725c	0.2074675
250	0x3eea1252	0.45717102
251	0x3aaec2b8	0.0013333177
252	0x3eef2eb5	0.46715322
253	0xbd5c8226	-0.053835057
254	0x3ed21d85	0.41038147
255	0xbe6e5a37	-0.23276602

encoder.3.bias f4 [32]
0	0xbd78ceab	-0.06074397
1	0xbe31589d	-0.1731896
2	0x3e39a644	0.18129832
3	0x3c372e4b	0.011180471
4	0x3e108088	0.14111531
5	0xbe98d93a	-0.2985323
6	0xbe5d4986	-0.21610078
7	0x3ce76217	0.028245015
8	0x3d1c8079	0.03820846
9	0x3d94064c	0.072277635
10	0xbe005d8d	-0.12535687
11	0x3ec05131	0.37561944
12	0xbe6c0643	-0.23049264
13	0xbe6bcd9e	-0.23027655
14	0x3db41c21	0.08794428
15	0xbe45f4c2	-0.19331649
16	0xbd877499	-0.06614036
17	0xbec746b3	-0.38921127
18	0xbcb5e530	-0.022204012
19	0xbe44502c	-0.19171208
20	0x3e1721a7	0.14758931
21	0xbe88e2ea	-0.26735622
22	0xbe345f43	-0.17614464
23	0x3c86a074	0.016433932
24	0x3efc3753	0.4926096
25	0xbe89c0a2	-0.2690478
26	0xbe1f906a	-0.15582433
27	0xbd5d3082	-0.05400134
28	0xbeb2a6f0	-0.34892988
29	0xbdb0c556	-0.08631389
30	0x3e061fca	0.13098064
31	0x3ba01f39	0.0048865345

encoder.4.weight f4 [32]
0	0x3f54683a	0.8297154
1	0x3fc37ff2	1.5273421
2	0x3fb334a9	1.4000446
3	0x3f2052aa	0.62626135
4	0x3f9aa20b	1.2080702
5	0x3f4fff3a	0.8124882
6	0x3edcff2f	0.4316344
7	0x3f84f82c	1.0388236
8	0x3f5e3ef4	0.8681481
9	0x3f27775c	0.654165
10	0x3f92965b	1.1452135
11	0x3fab30f6	1.3374317
12	0x3fcb7873	1.5896133
13	0x3fa088a8	1.2541704
14	0x3f9535a0	1.165699
15	0x3f88db8d	1.0692002
16	0x3f65f59f	0.89827913
17	0x3f7a7670	0.9783697
18	0x3fb274a4	1.3941846
19	0x3fa9e5d1	1.3273259
20	0x3f371cf0	0.7152853
21	0x3fa7dba6	1.3113906
22	0x3f9e1ffe	1.2353513
23	0x3f7f4206	0.9971012
24	0x3faecad9	1.3655654
25	0x3f39abdd	0.7252787
26	0x3f6c2219	0.9223953
27	0x3f97f1d8	1.187068
28	0x3f9885a4	1.1915784
29	0x3f993373	1.1968826
30	0x3f80b72d	1.0055901
31	0x3f9d7c51	1.2303563

encoder.4.bias f4 [32]
0	0x3f37c7cd	0.71789247
1	0x3ef68813	0.4815069
2	0x3e1a796c	0.15085381
3	0x3ef7a198	0.48365474
4	0x3f1ce79e	0.6129092
5	0x3eed0bb5	0.46297994
6	0x3f0360f5	0.5131982
7	0x3edebe60	0.4350462
8	0x3e12d140	0.14337635
9	0x3dd11fed	0.102111675
10	0xbea1d1f7	-0.31605503
11	0xbf72e49e	-0.9488009
12	0xbe12365f	-0.14278553
13	0xbea12287	-0.31471655
14	0xbf9792b4	-1.1841645
15	0xbf4715da	-0.7776772
16	0x3f2b2ee2	0.6686841
17	0xbe982f0d	-0.29723397
18	0x3f359d11	0.7094279
19	0x3ede94fc	0.4347304
20	0x3e29bafa	0.16575232
21	0x3f77cd87	0.96797985
22	0xbe5d3aca	-0.21604457
23	0xbf4a20ae	-0.78956115
24	0x3d7bece7	0.061505225
25	0xbd7b27fa	-0.06131742
26	0x3e4b36e0	0.19845152
27	0xbef6e0ae	-0.48218292
28	0x3ebe31f3	0.37147483
29	0x3f1bb3f2	0.6082145
30	0xbd94335c	-0.072363585
31	0xbf0d4c96	-0.55194986

encoder.4.running_mean f4 [32]
0	0xbfc86bd5	-1.5657908
1	0xc00f1422	-2.2356038
2	0x3f78a8aa	0.9713236
3	0x3fbd646e	1.4796274
4	0xbf758573	-0.9590675
5	0xbf861997	-1.0476559
6	0xbf59ed7d	-0.85128003
7	0x3f83e2d7	1.0303601
8	0x3e508142	0.20361808
9	0x3f7c55cb	0.9856841
10	0x3e6e2343	0.23255639
11	0x40073f15	2.1132252
12	0x3eab2bb0	0.33431768
13	0xbe513961	-0.20432045
14	0x3fb8da43	1.4441608
15	0x3f479856	0.7796682
16	0xbf6700ff	-0.90235895
17	0x3fc1672e	1.5109613
18	0xbfa42fa2	-1.2827036
19	0xbff32a67	-1.8997315
20	0x3fdb0bb8	1.7112951
21	0xbfa23604	-1.2672734
22	0xbea6ef6f	-0.32604548
23	0x3eb7801d	0.3583993
24	0xbec02fe1	-0.3753653
25	0xbf83ca07	-1.0296029
26	0xbf91ffff	-1.1406249
27	0xbf1612ac	-0.5862224
28	0xbf458138	-0.771503
29	0xbfed425d	-1.8535877
30	0x3fd78f0b	1.6840528
31	0x404241e4	3.0352716

encoder.4.running_var f4 [32]
0	0x4015424f	2.3321722
1	0x402a71ce	2.663196
2	0x40347594	2.8196764
3	0x4018c2fc	2.386901
4	0x3fe43048	1.7827234
5	0x403356c7	2.8021715
6	0x3fb1868e	1.3869188
7	0x3fe00d18	1.7503996
8	0x40291b26	2.642282
9	0x405c43f6	3.441648
10	0x401c990f	2.446842
11	0x4043b6f1	3.0580409
12	0x4079ae11	3.9012492
13	0x404e29bf	3.221298
14	0x40194eba	2.39543
15	0x401cccb7	2.4499948
16	0x4076eb12	3.8580976
17	0x3fc9d42f	1.5767878
18	0x402c6109	2.6934226
19	0x40dc33ca	6.881322
20	0x3fa7bee4	1.310513
21	0x40236147	2.5528123
22	0x402d5dfb	2.708861
23	0x402e94fd	2.7278435
24	0x4096a8a1	4.7080846
25	0x404ce78b	3.2016323
26	0x4063b212	3.5577435
27	0x4010ec47	2.2644212
28	0x403e7b3d	2.9762719
29	0x40230055	2.5468953
30	0x40200d12	2.5007977
31	0x403efcf7	2.9841897

decoder.0.weight f4 [16, 32]
0	0x3d293008	0.04130557
1	0x3d65dfe5	0.056121726
2	0xbdafdf30	-0.085874915
3	0x3e7c12d8	0.24616563
4	0xbef4916e	-0.47767204
5	0x3d7a4e5b	0.06110988
6	0xbeedce3c	-0.46446407
7	0x3d13d42c	0.036091015
8	0xbdc87316	-0.09787576
9	0x3ecb7d29	0.39743927
10	0xbf257ec7	-0.6464657
11	0xbd6e05f7	-0.058111157
12	0x3ecb8fc8	0.39758134
13	0x3f5df6ec	0.867049
14	0x3d347f46	0.04406669
15	0xbf8926af	-1.071493
16	0xbf5a7477	-0.8533396
17	0x3e5f24a9	0.21791328
18	0xbd8d3226	-0.06894331
19	0x3dae199f	0.085009806
20	0x3d7f00c0	0.062256575
21	0x3e7542b6	0.2395123
22	0xbfb7e6d3	-1.4367317
23	0x3f24cf11	0.6437846
24	0xbec798e8	-0.38983846
25	0x3e60812b	0.21924274
26	0xbe522a18	-0.2052387
27	0x3cbfc14e	0.023407605
28	0x3e00c9ea	0.12577024
29	0xbf26563c	-0.64975333
30	0xbdbeb63c	-0.09312102
31	0x3f88a354	1.0674844
32	0xbeb023d0	-0.34402323
33	0xbe4ecbea	-0.20194975
34	0xbed677b8	-0.41888213
35	0xbdd45f01	-0.10369683
36	0xbf639e93	-0.8891384
37	0xbea8f797	-0.33001396
38	0x3ee98a10	0.45613146
39	0xbe973103	-0.2952958
40	0x3ea956a3	0.3307391
41	0xbdf617a6	-0.12016229
42	0xbef74069	-0.4829133
43	0xbef9d3db	-0.48794445
44	0x3e02a468	0.12758029
45	0xbe261267	-0.16217957
46	0xbb9462b4	-0.004528368
47	0x3eb3d5b8	0.35123992
48	0x3f455d0a	0.7709509
49	0xbf26b741	-0.65123373
50	0x3deca08f	0.115540616
51	0xbeebd702	-0.46062475
52	0x3f05420f	0.5205392
53	0x3f4ad6e9	0.79234177
54	0x3eea2871	0.4573398
55	0xbf3939d8	-0.7235389
56	0xbe21541d	-0.15754743
57	0x3d9b88a5	0.07594422
58	0x3f1c7a29	0.611239
59	0x3d8216e2	0.06352021
60	0xbea1cbc0	-0.3160076
61	0x3d9b538d	0.075842954
62	0xbe64604a	-0.22302356
63	0xbe88ab22	-0.26693064
64	0x3ec48f76	0.38390702
65	0xbbb203e2	-0.005432592
66	0x3de09864	0.10966566
67	0x3d1fb5ba	0.038991667
68	0xbdbd00ec	-0.092286915
69	0x3dad37ed	0.084579326
70	0x3e760eaa	0.24029031
71	0xbe67d20d	-0.22638722
72	0xbf2ac0ee	-0.6670064
73	0x3f432daa	0.7624155
74	0x3dda4d4a	0.10659273
75	0xbf83edf0	-1.0306988
76	0x3e719b36	0.23594365
77	0x3dc96fc4	0.09835771
78	0x3fab16ab	1.3366293
79	0xbf0450b7	-0.5168566
80	0xbe3bf69c	-0.18355793
81	0xbe334a78	-0.17508876
82	0x3f2b9955	0.6703084
83	0xbf5f3541	-0.87190634
84	0x3ea28e64	0.3174926
85	0xbf11671e	-0.5679797
86	0xbe448fd4	-0.19195491
87	0x3ed76964	0.42072594
88	0xbe2ff619	-0.17183723
89	0xbf429e21	-0.76022536
90	0xbe1c7f17	-0.15282856
91	0x3c584ccf	0.013201906
92	0xbf8a0c9d	-1.0785099
93	0xbf124aa9	-0.5714517
94	0xbe5bd9bb	-0.21469776
95	0x3eabc970	0.33552122
96	0xbf5925ab	-0.848231
97	0xbeeca553	-0.46219882
98	0xbbf327b2	-0.0074205035
99	0xbe8bafc4	-0.27282536
100	0xbea8a036	-0.3293473
101	0x3e7cc001	0.24682619
102	0x3e891de9	0.26780632
103	0xbe8d0619	-0.27543715
104	0xbef1ae02	-0.4720307
105	0xbd96e5e6	-0.073680684
106	0x3ef874b6	0.48526543
107	0xbd3cc26c	-0.046083853
108	0xbf0ed632	-0.55795586
109	0xbf06853a	-0.5254704
110	0x3bf13f41	0.007362277
111	0x3da6aefa	0.08138843
112	0x3e25d9f5	0.16196425
113	0x3e6ce3fd	0.23133846
114	0x3f2afa8a	0.6678854
115	0x3e56ca2c	0.2097556
116	0xbe4b42e9	-0.19849743
117	0x3ea12e01	0.3148041
118	0x3c4a206c	0.012336832
119	0xbe0db814	-0.13839751
120	0x3e993e18	0.29930186
121	0x3e1d127e	0.15339085
122	0xbe50d421	-0.20393421
123	0x3e678317	0.226086
124	0xbf7cff7b	-0.9882733
125	0x3eeff6ce	0.46867985
126	0xbe2f7a13	-0.17136411
127	0xbf83a45a	-1.0284531
128	0xbeaaef7a	-0.3338583
129	0x3db4b062	0.08822705
130	0xbc8c228a	-0.017106313
131	0xbf1b38e1	-0.60633665
132	0xbc1f4f8d	-0.009723556
133	0xbd0b12ac	-0.033953354
134	0x3f0c361f	0.5477008
135	0xbf1d116a	-0.61354697
136	0xbe348b9b	-0.1763138
137	0xbd95da30	-0.073170066
138	0xbcc9ff25	-0.024657795
139	0xbeebf220	-0.46083164
140	0xbf031221	-0.5119954
141	0xbf30e588	-0.69100237
142	0x3e933371	0.28750184
143	0xbe2afbbc	-0.16697592
144	0x3f046fd1	0.5173312
145	0xbfba9623	-1.4577068
146	0x3f803829	1.0017139
147	0xbec09cae	-0.37619537
148	0x3d0e24ac	0.03470294
149	0x3ec87909	0.39154842
150	0x3ed748f1	0.42047837
151	0xbf236cfb	-0.63838166
152	0xbecb1df7	-0.396713
153	0xbf0193b1	-0.50615984
154	0x3e8dd11f	0.2769861
155	0xbedc2f8c	-0.43005025
156	0x3d534bb4	0.051585868
157	0x3e29b996	0.16574702
158	0xbc698a23	-0.014254126
159	0xbe76fc4f	-0.24119686
160	0xbf836e18	-1.0267973
161	0xbcdba9cd	-0.026814366
162	0x3ecb3558	0.39689136
163	0xbe1c98c7	-0.15292655
164	0xbf3286ca	-0.6973692
165	0x3d97409f	0.07385372
166	0x3e920f2d	0.28527203
167	0xbe8b0add	-0.27156726
168	0x3e87c6b7	0.26518795
169	0x3e435f71	0.19079377
170	0x3f4cd4f3	0.80012435
171	0xbecd9a48	-0.4015677
172	0xbf64280b	-0.891236
173	0xbe1621ec	-0.14661378
174	0x3f9b154d	1.2115875
175	0xbeaa44b3	-0.33255538
176	0x3d2df6aa	0.042471565
177	0xbc88564f	-0.016642718
178	0x3f5a4020	0.85254097
179	0xbe0f748b	-0.14009301
180	0xbc9b0909	-0.018925207
181	0xbebff70a	-0.37493163
182	0xbeb6d8a9	-0.35712174
183	0xbf836c3f	-1.0267409
184	0x3d800aba	0.06252046
185	0xbe9d9efb	-0.30785355
186	0xbef1c98e	-0.47224087
187	0xbe255472	-0.16145495
188	0xbe492d3a	-0.19646159
189	0xbeab6d87	-0.33482
190	0x3f2ddc8b	0.67914647
191	0xbd0f2666	-0.03494873
192	0xbd25891c	-0.04041396
193	0xbf297d70	-0.6620703
194	0xbdb60e55	-0.08889452
195	0xbc5b21c3	-0.013374749
196	0x3f5d5c1e	0.86468685
197	0x3f2432b8	0.6413989
198	0xbe042cd2	-0.12907723
199	0x3cca7269	0.024712758
200	0xbe7084cb	-0.23488156
201	0xbc4bb2c5	-0.012432759
202	0xbeeaeb58	-0.45882678
203	0xbf1a88cc	-0.60364985
204	0xbd32c99f	-0.043649312
205	0xbf54a19e	-0.8305911
206	0xbd65d2d6	-0.056109272
207	0x3f54ad15	0.830766
208	0xbe85322e	-0.26014847
209	0x3eac5275	0.3365666
210	0xbe68ac65	-0.22722013
211	0x3f2f39ab	0.6844737
212	0x3dc86a66	0.09785919
213	0xbe19fbf6	-0.15037522
214	0x3dc00924	0.093767434
215	0xbdd7963a	-0.105267
216	0xbfa53d04	-1.2909245
217	0xbead8cc0	-0.33896446
218	0x3e6fbb57	0.23411308
219	0xbd98bbb2	-0.07457675
220	0x3e2d9947	0.16953002
221	0xbe3cb3b4	-0.18427926
222	0xbe436153	-0.19080095
223	0xbf014f72	-0.5051185
224	0x3cacb95b	0.021084478
225	0x3e1e2c58	0.15446603
226	0x3f8431bd	1.0327679
227	0xbe0aef9e	-0.13567969
228	0x3bd3e273	0.006466204
229	0x3eef7f01	0.46776584
230	0xbf157bfb	-0.58392304
231	0xbe17c5a2	-0.14821485
232	0xbf90af3d	-1.1303478
233	0x3e29a174	0.16565496
234	0xbeaf053f	-0.3418369
235	0x3ec003f5	0.3750302
236	0xbf57b8f5	-0.842666
237	0x3e09070d	0.13381596
238	0xbe153f36	-0.14574894
239	0xbf621bb4	-0.8832352
240	0xbf2a4513	-0.6651165
241	0x3f53b4b8	0.8269763
242	0xbeb60e71	-0.35557893
243	0x3ebf2155	0.37330118
244	0xbf00c248	-0.5029645
245	0xbf12a6db	-0.5728585
246	0xbf5c0023	-0.8593771
247	0xbe2dba14	-0.16965514
248	0x3de23162	0.11044575
249	0xbeb2a3a5	-0.34890476
250	0xbeeda20e	-0.464127
251	0x3e29e0ed	0.16589709
252	0xbe89c12d	-0.26905194
253	0xbd987c38	-0.07445568
254	0xbd89aede	-0.067228064
255	0xbe97f2ac	-0.2967733

decoder.0.bias f4 [16]
0	0xbf1add2d	-0.6049374
1	0xbef16d40	-0.47153664
2	0xbd53439a	-0.05157814
3	0x3dde32d2	0.10849537
4	0xbe234884	-0.15945631
5	0xbe3b6360	-0.18299627
6	0x3e0fa928	0.14029372
7	0x3ee7bc3c	0.452608
8	0x3da9aa45	0.082844295
9	0x3e728446	0.23683271
10	0xbe3274a1	-0.17427303
11	0xba3f4ee8	-0.000729783
12	0x3d308ab6	0.043101035
13	0xbf12e378	-0.5737834
14	0xbedd0cc2	-0.43173796
15	0x3e7daea8	0.24773657

decoder.1.weight f4 [16]
0	0x403e5788	2.9740925
1	0x401790af	2.3682058
2	0x40456ba9	3.084696
3	0x402b702f	2.6787221
4	0x4012e208	2.2950459
5	0x4038e615	2.889043
6	0x400b5ac8	2.1774158
7	0x4046d052	3.1064649
8	0x400fe845	2.2485516
9	0x40267765	2.6010373
10	0x403210ef	2.7822835
11	0x403e4c22	2.9733968
12	0x401ef6d3	2.483815
13	0x3fca2e3e	1.5795362
14	0x403ce9d4	2.9517717
15	0x40087b8a	2.1325402

decoder.1.bias f4 [16]
0	0x40115abb	2.2711627
1	0x400896ab	2.134196
2	0x4017fd45	2.3748333
3	0x4003fe96	2.0624137
4	0x3ff85c22	1.9403117
5	0x3fdad1ab	1.7095236
6	0x4008f58a	2.1399865
7	0x400e98ea	2.2280831
8	0x4004e6ae	2.0765796
9	0x3fc49f98	1.5361204
10	0x400702d4	2.1095476
11	0x3ff1c35a	1.8887742
12	0x4009b9e8	2.1519718
13	0x40227930	2.5386467
14	0x4007e92e	2.1236072
15	0x3fde3332	1.7359374

decoder.1.running_mean f4 [16]
0	0xc00474ff	-2.0696409
1	0xbf71f4ad	-0.9451397
2	0xc00cf648	-2.2025318
3	0xbf915f78	-1.135726
4	0xbf15a082	-0.5844804
5	0xc009b344	-2.1515665
6	0xbf759190	-0.95925236
7	0xc00a186d	-2.1577408
8	0xc00eba73	-2.23013
9	0x3ea25bc5	0.3171064
10	0xc050a534	-3.2600832
11	0xbe4b448c	-0.19850367
12	0xbfa2d498	-1.2721128
13	0xc0556fa2	-3.3349385
14	0xc04669d1	-3.1002085
15	0xbf8d596c	-1.1042914

decoder.1.running_var f4 [16]
0	0x4130c43d	11.04791
1	0x412d1a13	10.818866
2	0x41279340	10.47345
3	0x4138d3a2	11.551668
4	0x4138df4c	11.554516
5	0x40dc740e	6.889167
6	0x40b4ee17	5.6540637
7	0x412ff239	10.996636
8	0x40f1a9d9	7.5519834
9	0x4171faeb	15.123759
10	0x41028c9b	8.1593275
11	0x40fe0ea6	7.939288
12	0x41213c2b	10.077189
13	0x40d48ff0	6.6425705
14	0x41070afd	8.440183
15	0x413d6537	11.837211

decoder.3.weight f4 [3, 16]
0	0xbec54e5d	-0.3853635
1	0x3fdbac35	1.7161928
2	0xbef5a68e	-0.47978634
3	0x4005fc0a	2.0935082
4	0x3facaace	1.3489625
5	0x403e2192	2.970799
6	0x3f7a19a9	0.97695404
7	0x3fd611d1	1.6724187
8	0x4013706f	2.3037374
9	0x3fd82714	1.6886926
10	0x3d768903	0.06018926
11	0x4001bbef	2.0270956
12	0x400e1b86	2.22043
13	0x3fed3abc	1.8533549
14	0x400d2115	2.2051442
15	0x3fe69566	1.8014343
16	0x40369cda	2.8533235
17	0x3f6f8389	0.9356008
18	0x3fedf780	1.8591156
19	0x400feee7	2.2489564
20	0x3f447a3b	0.7674901
21	0x3f218ea9	0.6310831
22	0x3fcba4ce	1.5909669
23	0x403c9914	2.9468431
24	0x3f277f06	0.654282
25	0x400a8be1	2.1647875
26	0x4028d133	2.6377685
27	0x3ea7e911	0.32795003
28	0x40061e3f	2.095596
29	0x3f9b4d50	1.2132969
30	0x3fa3f420	1.2808876
31	0x3f9f7a02	1.2459109
32	0x3fd16964	1.6360288
33	0x400c583a	2.192885
34	0x403179a1	2.7730486
35	0xbe2f199c	-0.17099613
36	0x4015e490	2.3420753
37	0x3f2ca5b5	0.6744035
38	0x4004b254	2.0733843
39	0xbf03e97f	-0.5152816
40	0x3fdba5be	1.7159956
41	0x3f4134ba	0.7547108
42	0x3fd11539	1.6334602
43	0x401519ab	2.3296916
44	0xbeb1d8d4	-0.3473574
45	0x40035755	2.0522053
46	0x3ff175e1	1.8864099
47	0x3fc16d50	1.5111485

decoder.3.bias f4 [3]
0	0x3f6400f3	0.8906395
1	0x3ffd2cff	1.9779357
2	0x3f783cb9	0.96967655
